model/keypoint_classifier/keypoint_classifier.tflite (tflite, 6692 bytes, 6 tensors)

sequential_2/dense_8/BiasAdd/ReadVariableOp f4 [8]
-0.2720485 -0.58382636 0.42934394 0.51984966 -0.5054703 0.78784716 0.021406548 0.25868878
00000000: f149 8bbe a575 15bf f8d2 db3e de14 053f
00000010: 8066 01bf 5ab0 493f c95c af3c db72 843e

sequential_2/dense_7/BiasAdd/ReadVariableOp f4 [10]
0.87558955 -0.38843226 0.7223576 0.7187539 0.6435497 0.4470013 0.11777012 1.0058032
0.016042363 -0.015649114
00000000: a326 603f 98e0 c6be 6dec 383f 4100 383f
00000010: acbf 243f 5bdd e43e 7631 f13d 29be 803f
00000020: 466b 833c 9232 80bc

sequential_2/dense_6/BiasAdd/ReadVariableOp f4 [20]
-0.39845917 -0.9241348 -0.5077626 -0.4554493 -0.56752396 -0.19180974 0.88198453 -0.90450215
-0.8949749 0.22014591 0.22353818 -0.85769874 -0.40599298 -0.7964138 -0.61690134 -0.8909697
-0.5922086 -0.7714675 -0.48071522 0.16482513
00000000: d702 ccbe 1994 6cbf bbfc 01bf a730 e9be
00000010: 4049 11bf c669 44be bdc9 613f 748d 67bf
00000020: 131d 65bf ee6d 613e 31e7 643e 2592 5bbf
00000030: 50de cfbe c6e1 4bbf 3fed 1dbf 9716 64bf
00000040: fc9a 17bf e57e 45bf 4e20 f6be ebc7 283e

sequential_2/dense_6/MatMul f4 [20, 42]
0.25380182 -0.033469677 -0.21748418 -0.13529184 -0.2213932 -0.13197678 -0.57666886 -0.2935361
-0.6555017 -0.35663846 0.12181055 0.27887842 0.08081282 0.119206764 0.030242959 0.04395253
0.004688162 0.020139078 0.0120290965 0.2643937 0.09847511 0.07562537 0.30628213 -0.082396284
0.5206148 0.057217076 -0.08652934 0.27403447 0.14553827 -0.024809258 0.48093796 -0.18994613
0.56404227 -0.014638281 -0.20639917 0.24882507 -0.00775247 0.01067573 0.20964819 0.0010187622
0.38838646 0.23128049 -0.0067860484 -0.0004656911 -0.39202252 -0.4436262 -0.21449785 -0.42768088
-0.2100564 -0.54585177 -1.1550542 -0.45884702 -0.39306954 -0.119555734 -0.0027167238 -0.11163904
0.14385909 -0.11947024 0.13185547 -0.06919029 -0.3834186 -0.051712964 0.12555908 -0.014520571
0.3024871 0.04900438 0.2630779 0.029563766 -0.40987492 -0.031636007 0.11983698 0.0019483247
0.3325374 0.056751814 0.22435993 0.050688494 -0.2780265 -0.012076514 -0.0027993352 0.03056643
-0.010991256 0.08496727 -0.17035396 0.07974415 -0.03895369 0.31021476 0.028752964 -0.30106497
-0.016234256 -0.08793761 -0.0056680534 0.117275424 0.037776407 0.1670584 0.043230098 -0.0084556695
-0.021745235 0.021661794 -0.021694675 0.018021334 0.026196662 -0.023516376 0.15176754 0.06242534
-0.06099257 0.112957746 -0.14324014 0.10885013 -0.0023215555 0.1177668 0.20422308 0.12928149
-0.10110876 0.10368746 -0.1047677 0.00839268 0.078501694 0.026956124 0.25567293 0.19212711
-0.13101347 0.20147549 -0.13196674 0.19608793 0.050215606 -2.2251394 0.13897654 0.11474174
0.09354754 0.18315154 0.0310588 0.026714446 0.044676434 0.045841735 0.01614084 0.049016528
-0.00954566 0.03543667 -0.011598693 0.03932525 -0.03988721 0.02936274 -0.062356982 -0.043588035
0.037056345 0.06656608 -0.02489964 0.077715226 -0.024271077 0.041976996 0.03869897 0.09246907
0.13110249 0.11940441 -0.016696194 0.08802417 -0.05305877 0.03770623 0.14914633 -1.8271959
0.15977983 0.15221106 -0.05345765 0.13847013 -0.19599319 0.17291333 -0.1991367 0.21599324
0.0022153556 0.07395926 0.100248285 -0.13018386 -0.037487637 0.08193604 -0.1210954 0.09452191
-0.14105682 0.17376626 0.049770094 0.1390246 0.0036408491 0.07507359 0.013432032 0.07437836
0.019636754 -0.0060499613 0.045606412 0.09566166 -0.024334483 0.09424339 0.08759564 0.038157545
0.12506168 -1.3051822 0.036245357 0.10569634 -0.062906876 0.05072401 0.0288763 0.004901653
0.11493078 0.036730364 -0.014923455 0.12804332 -0.14079963 0.042969204 -0.048229728 -0.095489696
0.09753107 -0.15893899 0.20079458 0.21609408 0.89989996 -0.033189498 0.6672541 -0.22124259
1.023953 -0.14817664 0.746436 -0.42995214 -0.06283421 0.15027864 0.010464011 0.050884712
-0.05438179 -0.0138848545 -0.09083158 -0.10527716 -0.14366636 0.10965955 -0.09468794 0.081725456
-0.47721618 0.11939833 -0.5024585 0.15728539 -0.26359266 0.15528336 -0.13623466 0.09662288
-0.48570243 0.19384891 -0.54720396 0.19733587 -0.13942006 -0.058138434 -0.028781245 0.05056802
-0.20382443 0.15062396 -0.47473678 0.19872515 0.27513218 -0.15896104 -0.1451415 -0.4784569
00000000: 50f2 813e 8017 09bd 2cb4 5ebe f289 0abe
00000010: e6b4 62be ec24 07be 92a0 13bf 5d4a 96be
00000020: f6ce 27bf 5199 b6be cf77 f93d 27c9 8e3e
00000030: 3181 a53d ad22 f43d 15c0 f73c 9107 343d
00000040: 279f 993b b5fa a43c b015 453c 9c5e 873e
00000050: 52ad c93d 79e1 9a3d 03d1 9c3e 62bf a8bd
00000060: 0347 053f 745c 6a3d 4b36 b1bd 3f4e 8c3e
00000070: fc07 153e c93c cbbc 803d f63e 3d81 42be
00000080: 1365 103f 67d5 6fbc 4e5a 53be 00cc 7e3e
00000090: 6f08 febb 42e9 2e3c 04ae 563e fd87 853a
000000a0: 97da c63e cbd4 6c3e 805d debb 0028 f4b9
000000b0: 2db7 c8be f922 e3be 53a5 5bbe fdf8 dabe
000000c0: 0619 57be f1bc 0bbf d1d8 93bf ffed eabe
000000d0: 6940 c9be a3d9 f4bd 100b 32bb 02a3 e4bd
000000e0: cc4f 133e d0ac f4bd 1f05 073e a4b3 8dbd
000000f0: 714f c4be f9d0 53bd 8f92 003e b0e7 6dbc
00000100: 97df 9a3e d1b8 483d 26b2 863e b62f f23c
00000110: 20db d1be c294 01bd 176d f53d ee5e ff3a
00000120: 5842 aa3e 9774 683d 9cbe 653e bd9e 4f3d
00000130: 7d59 8ebe 92dc 45bc 0d75 37bb 7366 fa3c
00000140: ab14 34bc 5203 ae3d 4571 2ebe e750 a33d
00000150: e88d 1fbd 78d4 9e3e 568b eb3c 3025 9abe
00000160: b4fd 84bc a218 b4bd 14bb b9bb 192e f03d
00000170: 6fbb 1a3d 5b11 2b3e 0b12 313d a689 0abc
00000180: 1023 b2bc 1374 b13c 08b9 b1bc 7aa1 933c
00000190: 629a d63c 6aa5 c0bc f368 1b3e b7b1 7f3d
000001a0: 58d3 79bd 6456 e73d 8bad 12be d1ec de3d
000001b0: 3d25 18bb b82f f13d db1f 513e 5e62 043e
000001c0: 1c12 cfbd 175a d43d 7390 d6bd 7481 093c
000001d0: 7fc5 a03d 17d3 dc3c 90e7 823e f8bc 443e
000001e0: 6528 06be 974f 4e3e 4a22 07be 46cb 483e
000001f0: e1ae 4d3d af68 0ec0 de4f 0e3e b8fd ea3d
00000200: da95 bf3d 148c 3b3e 066f fe3c 41d8 da3c
00000210: a3fe 363d 8bc4 3b3d cb39 843c 8ec5 483d
00000220: 6665 1cbc 0b26 113d 7208 3ebc 8313 213d
00000230: c560 23bd 218a f03c 096a 7fbd 5e89 32bd
00000240: 65c8 173d cc53 883d 54fa cbbc 2929 9f3d
00000250: 23d4 c6bc 12f0 2b3d d082 1e3d 6c60 bd3d
00000260: bb3f 063e 4d8a f43d 75c6 88bc 0446 b43d
00000270: 2754 59bd d971 1a3d d1b9 183e 8ee1 e9bf
00000280: 539d 233e 37dd 1b3e 69f6 5abd 1dcb 0d3e
00000290: 70b2 48be 3110 313e 7eea 4bbe 552d 5d3e
000002a0: 802f 113b f477 973d f94e cd3d eb4e 05be
000002b0: a38c 19bd 15ce a73d dd00 f8bd b494 c13d
000002c0: 3371 10be c8ef 313e badb 4b3d 775c 0e3e
000002d0: 509b 6e3b 2fc0 993d 0712 5c3c ae53 983d
000002e0: 42dd a03c c13e c6bb cacd 3a3d 43ea c33d
000002f0: 1c59 c7bc ae02 c13d 5865 b33d 164b 1c3d
00000300: 2b10 003e 3610 a7bf 0376 143d 5377 d83d
00000310: 52d5 80bd fbc3 4f3d fe8d ec3c 0c9e a03b
00000320: d460 eb3d 9472 163d 8281 74bc ca1d 033e
00000330: c72d 10be 7a00 303d 898c 45bd 1a90 c3bd
00000340: 5fbe c73d e7c0 22be 189d 4d3e c447 5d3e
00000350: d85f 663f b6f1 07bd 2ad1 2a3f 6b8d 62be
00000360: e410 833f 9ebb 17be 6e16 3f3f b022 dcbe
00000370: 39af 80bd a5e2 193e 3e71 2b3c 7d6c 503d
00000380: 71bf 5ebd 4d7d 63bc e805 babd 8d9b d7bd
00000390: 461d 13be 3095 e03d c0eb c1bd ad5f a73d
000003a0: ae55 f4be 1d87 f43d 1fa1 00bf 6c0f 213e
000003b0: 9ef5 86be 9a02 1f3e 1981 0bbe 37e2 c53d
000003c0: fdad f8be 5480 463e 8f15 0cbf 6a12 4a3e
000003d0: 22c4 0ebe 9122 6ebd a5c6 ebbc 6a20 4f3d
000003e0: 5ab7 50be 2b3d 1a3e b310 f3be 9b7e 4b3e
000003f0: 20de 8c3e afc6 22be f99f 14be 4ef8 f4be

sequential_2/dense_7/MatMul f4 [10, 20]
0.16193174 -0.8057229 -0.14339937 0.37038377 0.51977915 -0.047676504 -0.0015196647 -0.35750282
-0.27280256 -0.13913369 -0.1989846 0.58737487 -0.015712686 0.6647055 0.92721283 -1.2191956
-0.12730554 -0.11140779 -0.34538886 -0.3301791 0.05692445 -0.5156143 0.0429454 -0.014181887
-0.3548634 0.49058095 0.475681 -0.49615493 0.05872336 0.04655849 0.20294818 -0.46809793
-0.02378885 -0.06960061 0.81863034 -0.076490656 0.22790991 0.8631436 0.6146451 0.26825792
0.22828633 -0.1978997 1.5370848 1.7544101 0.59270483 -0.5528515 -0.85791624 -0.3461833
0.7726942 0.17198582 -0.014498627 0.093694195 0.0778819 0.100631855 0.73863685 -0.13890408
0.5959824 -0.22865464 0.5450864 0.121545 -0.19124073 0.42030093 -0.023460744 0.041631974
0.041306496 0.16182125 0.66008663 -0.3194143 -0.11082517 1.5309254 0.53375417 -0.34895232
-0.97891724 0.031917475 0.12504286 -0.17908753 -0.38889006 -0.053736813 0.18022351 0.2887423
-0.19961195 0.09035693 0.7707414 0.13464949 -1.0739939 -0.25062606 -0.083762825 0.93608356
0.94341123 0.47978926 0.056198094 0.5697913 -0.063237436 0.3867457 -0.5284061 0.1352412
0.2977587 0.13281849 -0.846578 0.14047842 0.24322318 1.0136173 0.03333225 0.04209522
-0.50100946 0.30128857 0.54867345 -0.004477843 0.03278723 0.55367374 0.48690358 0.5286935
0.5802864 0.8066764 -0.55026585 0.0957026 0.34835863 0.5743139 -0.45229623 0.5460083
0.953168 0.70558715 0.0765192 0.4489063 -0.02159995 0.5699711 0.5025648 0.3380125
0.03109509 -0.25116366 0.9785332 0.27330014 0.6663138 1.1569581 0.063781336 0.8413835
0.8075355 0.92173445 1.2756705 0.38264796 -0.33944568 -0.2130621 -0.92062825 -1.8214098
-2.1459134 0.32992518 0.2835847 0.11281076 -0.21272819 -0.8755447 0.42659563 0.3921943
0.06008539 0.47781435 -1.8051283 0.6110693 -0.5754756 0.52239954 -0.3270883 0.54080725
-0.1341221 0.6843978 0.50669044 0.2193217 -0.041821577 -0.023151947 -0.1345524 0.9938114
0.8509279 0.0050472547 -0.06710598 -0.3957972 -0.049500357 -0.235718 0.028186385 0.48937166
0.43978286 0.65496856 -0.46406573 0.16250409 0.68855214 1.367773 0.96086425 -0.030676905
0.45452473 0.77654415 0.5774108 -0.81253517 1.0018704 0.0715239 0.2948498 1.1173478
1.647577 0.8490856 0.25674012 0.90936464 1.054971 0.6666623 0.6511581 0.82187563
00000000: 6fd1 253e db43 4ebf 49d7 12be f1a2 bd3e
00000010: 3f10 053f 7048 43bd 7c2f c7ba 9c0a b7be
00000020: c7ac 8bbe 1079 0ebe 9ec2 4bbe 335e 163f
00000030: e4b7 80bc 242a 2a3f d25d 6d3f 9a0e 9cbf
00000040: 625c 02be c429 e4bd cfd6 b0be 3c0d a9be
00000050: 9d29 693d 4cff 03bf 84e7 2f3d 255b 68bc
00000060: a8b0 b5be 6d2d fb3e 768c f33e 0508 febe
00000070: e887 703d 1db4 3e3d a6d1 4f3e 88aa efbe
00000080: d6e0 c2bc c48a 8ebd c291 513f 22a7 9cbd
00000090: 3761 693e fbf6 5c3f 6259 1d3f 1a59 893e
000000a0: e4c3 693e 38a6 4abe 32bf c43f 8390 e03f
000000b0: 81bb 173f ad87 0dbf 66a0 5bbf f03e b1be
000000c0: 49cf 453f 0d1d 303e a68b 6dbc bee2 bf3d
000000d0: 8c80 9f3d 1318 ce3d 4e17 3d3f df3c 0ebe
000000e0: 4d92 183f 7124 6abe c88a 0b3f 96ec f83d
000000f0: 9cd4 43be af31 d73e bf30 c0bc 4a86 2a3d
00000100: 0031 293d 78b4 253e 70fb 283f 458a a3be
00000110: 4ff8 e2bd 5df5 c33f 1da4 083f e1a9 b2be
00000120: 529a 7abf e6bb 023d 3c0b 003e b962 37be
00000130: 991c c7be 221b 5cbd 838c 383e 08d6 933e
00000140: 1367 4cbe 0e0d b93d 4f4f 453f 8ee1 093e
00000150: a278 89bf 0f52 80be d88b abbd 2ca3 6f3f
00000160: 6683 713f f0a6 f53e f92f 663d d8dd 113f
00000170: a182 81bd 8803 c63e 9f45 07bf ab7c 0a3e
00000180: d473 983e 9201 083e 56b9 58bf 93d9 0f3e
00000190: 7f0f 793e 36be 813f 6687 083d 0a6c 2c3d
000001a0: 2842 00bf 7f42 9a3e dd75 0c3f dfba 92bb
000001b0: e74b 063d 90bd 0d3f 6d4b f93e 7558 073f
000001c0: a68d 143f 5882 4e3f 39de 0cbf baff c33d
000001d0: 105c b23e 3c06 133f 5f93 e7be 33c7 0b3f
000001e0: d102 743f 5ca1 343f 19b6 9c3d 0cd7 e53e
000001f0: 61f2 b0bc a0e9 113f 16a8 003f f90f ad3e
00000200: 21bb fe3c 8698 80be 2781 7a3f ffed 8b3e
00000210: 8b93 2a3f 3417 943f ca9f 823d e964 573f
00000220: a6ba 4e3f caf6 6b3f 2c49 a33f 6fea c33e
00000230: d3cb adbe f32c 5abe 4bae 6bbf f523 e9bf
00000240: a556 09c0 f4eb a83e 0432 913e 5409 e73d
00000250: 6bd5 59be b323 60bf be6a da3e b1cd c83e
00000260: 191c 763d 15a4 f43e 720e e7bf 0a6f 1c3f
00000270: 5e52 13bf fabb 053f 1e78 a7be 5872 0a3f
00000280: 4e57 09be b234 2f3f 77b6 013f de95 603e
00000290: 1a4d 2bbd 27a9 bdbc 1bc8 09be 6d6a 7e3f
000002a0: 69d6 593f 7163 a53b dc6e 89bd eea5 cabe
000002b0: e3c0 4abd 0f60 71be 22e7 e63c ec8e fa3e
000002c0: 382b e13e 05ac 273f 069a edbe 7967 263e
000002d0: f444 303f 3013 af3f 33fb 753f 224e fbbc
000002e0: 77b7 e83e 99cb 463f 32d1 133f 4e02 50bf
000002f0: 4a3d 803f 1f7b 923d 8ef6 963e 4105 8f3f
00000300: cee3 d23f ad5d 593f 7173 833e 1fcc 683f
00000310: 4a09 873f 61aa 2a3f 4cb2 263f 7166 523f

sequential_2/dense_8/MatMul f4 [8, 10]
-0.5761648 1.1613904 0.5934666 0.31577945 -0.7743175 -0.03781189 0.6981525 -0.78167355
-0.10775062 0.96543574 0.30713266 -0.19165018 -1.157755 -0.07702143 0.29855543 0.3370835
0.43058193 0.07399728 1.0679698 0.8309036 -0.99782556 -1.176316 -1.3760964 0.77482
0.30238175 0.7284773 -0.03836038 0.97165424 -0.54732597 0.0861754 0.39389676 0.1459092
0.6868532 -1.5736771 0.035822842 -0.90930927 -0.2673623 -0.6672151 -0.08417034 0.6323358
-0.9004562 -1.0190393 0.69000065 -0.09817969 0.8253852 0.018848186 0.06146635 -0.691902
-0.3005613 0.039387405 1.304358 -0.68998754 -0.66942006 1.0501711 -1.2032665 -0.497921
-0.62114435 -1.2593768 -2.1645124 -1.0403534 0.8983629 0.056872703 0.56488514 0.74081767
-1.0711422 -0.38736764 -0.082341574 -1.0308411 -0.83182573 -1.6385293 0.18130235 -0.56527627
0.890736 0.072633654 -0.10958993 -0.89023876 -1.522342 -1.2419634 0.32669166 0.13671769
00000000: 897f 13bf 71a8 943f 6ded 173f d8ad a13e
00000010: ac39 46bf a4e0 1abd 1fba 323f c21b 48bf
00000020: 5bac dcbd cc26 773f 7e40 9d3e f23f 44be
00000030: 5131 94bf 69bd 9dbd 42dc 983e 3596 ac3e
00000040: 3c75 dc3e e38b 973d 3cb3 883f 19b6 543f
00000050: 7f71 7fbf 8691 96bf ed23 b0bf 9b5a 463f
00000060: c8d1 9a3e 7d7d 3a3f c61f 1dbd 55be 783f
00000070: 8e1d 0cbf ba7c b03d d6ac c93e 3969 153e
00000080: 9cd5 2f3f 406e c9bf f9ba 123d 7ec8 68bf
00000090: b6e3 88be 9cce 2abf 8061 acbd c2e0 213f
000000a0: 4c84 66bf e16f 82bf e2a3 303f 6f12 c9bd
000000b0: 724c 533f 8367 9a3c 24c4 7b3d 7d20 31bf
000000c0: 2ce3 99be b054 213d 34f5 a63f 06a3 30bf
000000d0: 1d5f 2bbf 026c 863f a304 9abf 80ef febe
000000e0: 5103 1fbf 4233 a1bf 5f87 0ac0 4d2a 85bf
000000f0: 1cfb 653f 5af3 683d 509c 103f 3aa6 3d3f
00000100: 301b 89bf 0d55 c6be b3a2 a8bd 9af2 83bf
00000110: 88f2 54bf 54bb d1bf 53a7 393e f2b5 10bf
00000120: 4607 643f f4c0 943d af70 e0bd b0e6 63bf
00000130: 1adc c2bf a8f8 9ebf 2144 a73e b9ff 0b3e
