model/point_history_classifier/point_history_classifier.tflite (tflite, 6536 bytes, 6 tensors)

sequential_1/dense_5/BiasAdd/ReadVariableOp f4 [7]
0	0x3e09df6d	0.13464136
1	0x3eb554cd	0.3541626
2	0x3f4d80ac	0.8027446
3	0xbf0f19a3	-0.55898494
4	0xbf423a32	-0.7587005
5	0xbe07a01a	-0.13244668
6	0xbf350466	-0.70709836

sequential_1/dense_4/BiasAdd/ReadVariableOp f4 [10]
0	0x3f39cc95	0.7257779
1	0x3f69b0e3	0.9128553
2	0xbe88a67e	-0.26689523
3	0xbdc334e2	-0.09531571
4	0x3f31d1bf	0.6946067
5	0x3e41511c	0.18878597
6	0x3fab1dca	1.3368466
7	0xbeaac0cb	-0.33350214
8	0x3f9da3f5	1.2315661
9	0xbdf48865	-0.11940078

sequential_1/dense_3/BiasAdd/ReadVariableOp f4 [24]
0	0x3f275c30	0.6537504
1	0xbcd3ab1e	-0.025838431
2	0x3efdb083	0.4954873
3	0xbcba9116	-0.02277426
4	0xbcac3af1	-0.0210242
5	0xbd1366fd	-0.03598689
6	0xbd32e3c8	-0.04367426
7	0xbcf9718e	-0.030449655
8	0x3f1cc83c	0.61243033
9	0x3f15fc9f	0.58588594
10	0xbd4a3a30	-0.0493719
11	0xbd56c137	-0.052430358
12	0x3f2a3e18	0.66501
13	0x3ee6d516	0.45084447
14	0x3f10e8c6	0.56605184
15	0xbce82c42	-0.028341416
16	0xbcbeb334	-0.02327881
17	0xbd0de366	-0.034640692
18	0x3f27ba77	0.655189
19	0xbd4d6879	-0.05014846
20	0xbd20917f	-0.039201256
21	0x3f286f23	0.6579458
22	0xbcef46f9	-0.029208647
23	0xbd0c8791	-0.034308974

sequential_1/dense_3/MatMul f4 [24, 32]
0	0x3e489ab8	0.1959027
1	0x3c5bd840	0.013418257
2	0xbeebc5e5	-0.4604942
3	0x3ce8f6b4	0.02843795
4	0x3d20a7ab	0.0392224
5	0x3ebb64f1	0.3660045
6	0xbe4802ea	-0.19532362
7	0x3e1a5462	0.15071252
8	0xbee57553	-0.44816074
9	0xbd118135	-0.035523612
10	0xbaa90a24	-0.0012896699
11	0x3e90bdcf	0.28269812
12	0xbe66e613	-0.22548704
13	0x3e21aeba	0.15789309
14	0xba7d2596	-0.0009656785
15	0xbe824f9a	-0.25451356
16	0x3df662c8	0.1203056
17	0xbe82603d	-0.2546405
18	0x3e5203e8	0.20509303
19	0xbe17b830	-0.14816356
20	0x3ebdae52	0.37047058
21	0xbeae2856	-0.3401515
22	0x3eb10e0e	0.34581035
23	0xbec0ec68	-0.37680364
24	0x3e76c504	0.24098593
25	0xbeeee966	-0.46662444
26	0x3f0b357e	0.543785
27	0xbe8b01f2	-0.27149922
28	0x3e929d5e	0.28635687
29	0xbec4ff37	-0.38475963
30	0x3ed750c7	0.42053816
31	0xbf2da7de	-0.6783427
32	0xbea0a263	-0.3137389
33	0x3df81100	0.121126175
34	0x3ebb7888	0.36615396
35	0x3e9b9c75	0.30392805
36	0x3f3e6355	0.7437032
37	0x3f38fec9	0.7226377
38	0x3f342c2e	0.7037991
39	0x3ea9cc83	0.33163843
40	0x3f42fa46	0.76163137
41	0x3edcbe3f	0.43113896
42	0x3fa29b92	1.2703726
43	0x3dc50396	0.096198246
44	0x3f7cb919	0.98719937
45	0xbd5970c5	-0.05308606
46	0x3f076baa	0.5289866
47	0xbe5b3bf4	-0.21409589
48	0x3f166c2a	0.58758795
49	0xbe05c95b	-0.13065092
50	0x3eb3359b	0.35001835
51	0xbe2b015a	-0.16699734
52	0x3e0b8abf	0.13627146
53	0xbe3c7e5b	-0.18407576
54	0xbe76054b	-0.24025457
55	0xbe997d5a	-0.29978448
56	0xbd86cb25	-0.065817155
57	0xbea1c98d	-0.31599084
58	0xbe1929cd	-0.14957352
59	0xbec90015	-0.39257875
60	0xbec4b4b7	-0.38419124
61	0xbf4fbc41	-0.8114663
62	0xbcba4043	-0.02273572
63	0xbf369804	-0.7132571
64	0x3c802360	0.015641868
65	0x3e9c4698	0.3052261
66	0xbf0d67a5	-0.55236274
67	0xbee995ca	-0.45622092
68	0xbca00386	-0.01953293
69	0x3eaea2ba	0.34108526
70	0xbe9dbb2b	-0.3080686
71	0x3cc2f2a0	0.023797333
72	0xbeddc043	-0.43310747
73	0x3e57dc3e	0.2108011
74	0xbe51159b	-0.20418398
75	0xbce22a2d	-0.027608002
76	0xbde97980	-0.114001274
77	0x3df1f338	0.118139684
78	0xbe11e519	-0.1424755
79	0x3d1acad7	0.0377911
80	0xbe32767e	-0.17428014
81	0xbcec5160	-0.028847396
82	0x3e17d725	0.14828165
83	0xbd2e64b1	-0.042576496
84	0x3ece1deb	0.402572
85	0xbe1a0fd7	-0.15045105
86	0x3eb5d378	0.355129
87	0xbe3f5780	-0.18685722
88	0x3f1c904b	0.61157674
89	0xbeb7bf4f	-0.35888144
90	0x3f376667	0.7164063
91	0xbef475e1	-0.47746184
92	0x3efebffc	0.49755847
93	0xbf2facc8	-0.6862302
94	0x3f5b22e0	0.8560009
95	0xbf576809	-0.8414312
96	0x3e9523ce	0.2912888
97	0x3dbc3b24	0.09190968
98	0xbf19732f	-0.5994138
99	0xbd992b66	-0.07478981
100	0xbf9750e8	-1.1821566
101	0xbd6158bd	-0.055016268
102	0xbf7cd3ce	-0.9876069
103	0xbe979b93	-0.2961088
104	0xbf53144d	-0.8245285
105	0xbdf03bb1	-0.11730135
106	0xbf099844	-0.53747964
107	0xbead59d7	-0.33857605
108	0xbeb8286a	-0.35968333
109	0xbf0b8715	-0.54502994
110	0xbe7b1d79	-0.24522962
111	0xbf10d0ce	-0.5656861
112	0x3f214c17	0.6300673
113	0xbee70a85	-0.45125213
114	0x3f1c09b6	0.6095232
115	0xbf0330cf	-0.5124635
116	0x3f561531	0.83626086
117	0xbf0e232e	-0.5552243
118	0x3f83b485	1.0289465
119	0xbe8646a9	-0.26225784
120	0x3f9fbe7d	1.2480007
121	0x3e12f368	0.14350665
122	0x3f25d5f0	0.6477957
123	0xbe1c79f1	-0.15280892
124	0x3f4123b9	0.75445133
125	0x3f02ca5e	0.5109004
126	0x3f389775	0.72106105
127	0x3eec6fdc	0.46179092
128	0x3e4a832c	0.197766
129	0x3e9fddf4	0.31224024
130	0x3f717464	0.94318223
131	0xbf526eba	-0.82200205
132	0x3f9700f2	1.1797163
133	0xbf9f5f1c	-1.24509
134	0x3f42e80e	0.7613534
135	0xbf74102a	-0.95337164
136	0x3faba070	1.3408337
137	0xbf48b07c	-0.78394294
138	0x3f4a528b	0.790322
139	0xbe9acefb	-0.3023604
140	0x3f5de61e	0.86679256
141	0x3c3717ec	0.011175137
142	0x3f272b85	0.6530078
143	0x3ec6a84a	0.3880027
144	0x3ea1f20b	0.31629977
145	0x3f1cae22	0.61203206
146	0x3e24b925	0.16086252
147	0x3f376f96	0.7165464
148	0x3c197b6b	0.009367804
149	0x3ea48db1	0.32139352
150	0xbe830cea	-0.2559579
151	0x3f3b36e4	0.7313063
152	0xbefc8ec3	-0.4932767
153	0x3f072c4d	0.5280197
154	0xbf320df4	-0.6955254
155	0x3f03aea5	0.5143836
156	0xbf3f241d	-0.7466448
157	0x3efb50af	0.49084994
158	0xbf16df54	-0.5893452
159	0x3d849d68	0.06475335
160	0x3df3b420	0.118995905
161	0xbe295d14	-0.16539413
162	0x3e88d98c	0.26728475
163	0xbf85d8ec	-1.0456824
164	0x3f836a52	1.0266821
165	0xbf08807b	-0.53321046
166	0x3f67f703	0.90611285
167	0xbf0a6719	-0.54063565
168	0x3f98acb1	1.1927701
169	0xbf042402	-0.51617444
170	0x3fad0072	1.3515761
171	0xbe26fddf	-0.16307782
172	0x3fa5e57f	1.2960662
173	0x3f08db7e	0.5345992
174	0x3f513cd5	0.8173345
175	0x3f3a21fe	0.7270812
176	0x3ec8eab1	0.39241555
177	0x3edda21f	0.4328775
178	0x3ef44f5c	0.47716796
179	0x3f576473	0.8413765
180	0xbddc93b8	-0.107703626
181	0x3f4c4de8	0.79806376
182	0xbe9d7d29	-0.30759552
183	0x3f5af908	0.8553624
184	0xbf1671e9	-0.58767563
185	0x3ee1f6e6	0.4413368
186	0xbf058932	-0.5216247
187	0x3f1595d8	0.5843177
188	0xbf67b2bc	-0.905071
189	0x3ea82fb1	0.32848886
190	0xbf5f26fc	-0.8716886
191	0x3ecdb28d	0.40175286
192	0xbdb17980	-0.086657524
193	0xbe0e9e2e	-0.13927528
194	0x3e18bcf8	0.14915836
195	0x3ee79855	0.45233408
196	0x3f48d136	0.7844423
197	0x3f30dd66	0.6908783
198	0x3f857231	1.0425473
199	0x3f52f387	0.82402843
200	0x3f83b31d	1.0289036
201	0x3e44f87b	0.19235413
202	0x3f46278d	0.774041
203	0xbc4f4a4e	-0.012651993
204	0x3f5270b2	0.8220321
205	0xbe9a01b3	-0.3007942
206	0x3e9b039c	0.3027619
207	0xbed9b5cc	-0.42521513
208	0xbb6a5233	-0.003575456
209	0xbf178b76	-0.59197176
210	0xbebcd850	-0.36883783
211	0xbee1d4ac	-0.44107568
212	0xbeec88ba	-0.46198064
213	0xbe8de734	-0.27715456
214	0xbea5254c	-0.32255018
215	0xbe25767b	-0.16158478
216	0xbeaa4ccf	-0.33261725
217	0xbd851b39	-0.06499333
218	0xbe9ec634	-0.31010592
219	0xbe04f690	-0.12984681
220	0xbe17d322	-0.14826635
221	0x3dec0275	0.11523906
222	0xbdd33e65	-0.10314635
223	0x3e957f4b	0.2919868
224	0xbe60ff02	-0.21972278
225	0xbe84f679	-0.25969294
226	0xbc04b900	-0.008100748
227	0xbfb47bc7	-1.4100274
228	0xbf2f3710	-0.68443394
229	0xbfd133dd	-1.6343952
230	0xbf28535e	-0.6575221
231	0xbf6e100a	-0.92993224
232	0xbf5a625e	-0.85306346
233	0xbf537742	-0.8260385
234	0xbfa4b09f	-1.28664
235	0xbf348fe3	-0.70532054
236	0xbf97393e	-1.1814344
237	0xbe91fb9d	-0.28512278
238	0xbf433021	-0.76245314
239	0x3eb4df4c	0.35326612
240	0xbef9acad	-0.48764554
241	0x3eb83dbb	0.35984597
242	0xbea12482	-0.31473166
243	0x3ebcdd68	0.3688767
244	0xbe49c68b	-0.19704644
245	0x3ee88a1d	0.45417872
246	0xbd251ed6	-0.04031261
247	0x3efe2f83	0.49645624
248	0x3e6e771d	0.23287626
249	0x3ef79aca	0.48360282
250	0x3e70eb0b	0.23527162
251	0x3eb06209	0.34449795
252	0x3cbc0512	0.022951636
253	0x3e984995	0.2974364
254	0xbef4c614	-0.47807372
255	0x3ea4e8fb	0.32209

sequential_1/dense_4/MatMul f4 [10, 24]
0	0x3f05c16c	0.52248263
1	0xbf87236b	-1.0557684
2	0x3eb7d85a	0.3590725
3	0xbfa864fe	-1.315582
4	0xbfc1ab0f	-1.5130328
5	0xbf9274c0	-1.1441879
6	0xbe9698a4	-0.2941333
7	0xbf9994d9	-1.199855
8	0x3f13a2b7	0.5767016
9	0x3f0de31f	0.55424684
10	0xbf6e68f0	-0.9312887
11	0xbfaf5c46	-1.3700035
12	0x3eb0f911	0.34565023
13	0x3eebf516	0.46085423
14	0x3ee5faea	0.44917995
15	0xbfa1857c	-1.2618861
16	0xbfaa513f	-1.3306044
17	0xbf789198	-0.9709716
18	0x3f09014c	0.53517604
19	0xbeac41d6	-0.3364398
20	0xbfc33de5	-1.5253264
21	0x3f0e8468	0.55670786
22	0xbfcb6f08	-1.5893259
23	0xbfbd9d7b	-1.4813684
24	0xbd86c1d1	-0.06579936
25	0x3e1418d4	0.14462596
26	0xbda0717d	-0.07834146
27	0x3ee4f260	0.44716167
28	0x3e1b30e6	0.15155372
29	0x3e54cd54	0.20781451
30	0x3f32177e	0.69567096
31	0x3ee8dfa3	0.4548312
32	0x3f2c05b5	0.6719621
33	0x3ef3be5e	0.47606176
34	0x3f1aab7d	0.6041792
35	0x3ecf8afe	0.4053573
36	0x3f1083ed	0.564513
37	0x3ef4e5e3	0.4783164
38	0x3f051b01	0.5199433
39	0x3f2ada64	0.6673949
40	0xbdc69b2e	-0.09697567
41	0x3d36d0e7	0.04463282
42	0x3eaf2afd	0.34212485
43	0x3ea21a90	0.3166089
44	0x3e8f05c2	0.2793408
45	0x3e672eb7	0.22576414
46	0x3e926344	0.2859136
47	0x3eab1d9b	0.33421025
48	0x3ea0ecb3	0.31430587
49	0xbe0cb01b	-0.13739054
50	0x3f38b9a6	0.7215828
51	0x3f1c6a88	0.61100054
52	0xbc229f54	-0.009925682
53	0x3deb4e88	0.11489588
54	0x3e8e533d	0.2779788
55	0xbd14b7ae	-0.036307983
56	0xbf208f61	-0.6271878
57	0x3f100332	0.56254876
58	0xbe042389	-0.1290418
59	0x3e40ee87	0.18840991
60	0x3eea2a38	0.45735335
61	0xbec9a0ba	-0.39380437
62	0xbf32bc1b	-0.69818276
63	0xbd84bb37	-0.06481021
64	0x3b5737be	0.0032839621
65	0x3e991841	0.29901317
66	0x3ef58f7b	0.4796103
67	0x3eb17b05	0.3466417
68	0x3ee267d3	0.44219837
69	0x3f319486	0.69367254
70	0x3ed54418	0.41653514
71	0xbd2755c3	-0.040853273
72	0x3efd7404	0.49502575
73	0x3f9c8d17	1.2230557
74	0x3eaebc51	0.3412805
75	0x3fb35da5	1.4012953
76	0x3f8c0264	1.093823
77	0x3f8b3a90	1.0877247
78	0x3f083fd0	0.5322237
79	0x3efc83a2	0.49319178
80	0x3e83f6e2	0.25774294
81	0x3ead5361	0.33852676
82	0x3ecf0c48	0.40439057
83	0x3f850a87	1.0393838
84	0x3e1ae07c	0.15124696
85	0x3e39c206	0.1814042
86	0x3e91cec6	0.28478068
87	0x3f99d74f	1.2018832
88	0x3efdfa21	0.49604896
89	0x3ea57d4a	0.3232215
90	0x3e7fbd2d	0.24974509
91	0x3f23e3c4	0.6401942
92	0x3f933831	1.1501523
93	0x3e9ae84c	0.30255353
94	0x3f6b3c96	0.9188932
95	0x3ec9f205	0.3944246
96	0x3e9674f4	0.29386103
97	0xbfa1b992	-1.2634757
98	0x3e29c95d	0.1658072
99	0xbf276c0e	-0.65399253
100	0x3e340b64	0.1758247
101	0x3e746ff0	0.23870826
102	0xc006cc6f	-2.1062276
103	0xbfa51c01	-1.2899171
104	0x3f5fba41	0.87393576
105	0x3f2afa51	0.667882
106	0xbf8d490a	-1.1037915
107	0xbe5ee91a	-0.21768609
108	0x3f4652cc	0.7747009
109	0x3f0a58c3	0.5404169
110	0x3f5d180d	0.86364824
111	0xbe8b890e	-0.27253002
112	0xc002395a	-2.0347505
113	0xbfdc8d9c	-1.7230716
114	0x3ec20034	0.3789078
115	0xbf8792ac	-1.0591636
116	0xbee39102	-0.4444657
117	0x3e8de5b2	0.27714306
118	0x3eec0b14	0.46102202
119	0xbf8b5862	-1.0886347
120	0x3e84516f	0.2584338
121	0xbf1450af	-0.57935613
122	0x3e817021	0.2528086
123	0x3ebfc856	0.37457532
124	0xc00841bd	-2.1290123
125	0xc000f494	-2.0149279
126	0xbf3446a4	-0.7042029
127	0xbf30138b	-0.6877982
128	0x3d1f998e	0.0389648
129	0x3daa7ba7	0.08324366
130	0xbf32308b	-0.6960532
131	0x3eaca4f7	0.33719608
132	0x3d593907	0.0530329
133	0x3d7566c9	0.059912477
134	0xbd131497	-0.035908308
135	0xbec9d918	-0.39423442
136	0xbe5b0de8	-0.21392024
137	0xbf0350ad	-0.51294976
138	0x3e14841a	0.14503518
139	0xbf6ab639	-0.916843
140	0xbdcd1587	-0.10013872
141	0x3e48e190	0.19617295
142	0xbfa16540	-1.2609024
143	0xbf06e441	-0.5269204
144	0x3ebd290d	0.36945382
145	0xbf1d3cf5	-0.6142114
146	0x3ebbf0ff	0.36707303
147	0x3d664b2d	0.056224037
148	0x3e208e38	0.15679252
149	0x3e0ccdad	0.13750334
150	0xbf5da62a	-0.8658167
151	0xbe0c127b	-0.13678925
152	0x3b29ef2f	0.0025929918
153	0xbd4ca9fe	-0.049966805
154	0xbe10487f	-0.14090155
155	0x3ef8ec1a	0.4861763
156	0xbd9b309d	-0.075776316
157	0x3e7078df	0.23483609
158	0x3c1a8885	0.009431963
159	0x3dd6a0f6	0.104799196
160	0xbe5a94d9	-0.21345843
161	0xbe6951f1	-0.22785164
162	0x3e1868e1	0.14883758
163	0xbe84e5d1	-0.25956586
164	0xbda9e052	-0.08294739
165	0x3e9a98f6	0.30194825
166	0xbdb2392f	-0.08702313
167	0xbe119455	-0.1421674
168	0x3e64bede	0.22338435
169	0x3f41783d	0.75574094
170	0x3db6e277	0.089299135
171	0x3f3eaea6	0.7448524
172	0x3f0cbb20	0.5497303
173	0x3f043aae	0.5165204
174	0x3f7ffaf0	0.99992275
175	0x3f6db5da	0.9285561
176	0x3f0dc5fd	0.5538023
177	0x3ec7fd98	0.39060664
178	0x3f85627c	1.042068
179	0x3f8534c6	1.040673
180	0x3e9c0e15	0.30479494
181	0x3ea2633a	0.3171633
182	0x3eaf451d	0.34232417
183	0x3f29f0df	0.66383165
184	0x3d5d1db3	0.0539834
185	0xbd072695	-0.03299578
186	0x3ecd1fd1	0.40063336
187	0x3efc9f07	0.49340078
188	0x3ee66c62	0.45004565
189	0x3dfb6455	0.12274996
190	0x3f88d328	1.068944
191	0x3fae46a3	1.3615307
192	0x3f5cc879	0.86243397
193	0xbaca1645	-0.0015418014
194	0x3f5a261e	0.8521441
195	0xbbb30b3e	-0.0054639867
196	0xbefde39e	-0.4958772
197	0xbe8d5ca3	-0.2760974
198	0xbed8dfd5	-0.4235827
199	0xbe6c3147	-0.23065673
200	0x3d2d871f	0.04236519
201	0x3f34eac8	0.7067075
202	0xbe9e897a	-0.3096426
203	0xbf491f94	-0.7856381
204	0x3ef81c63	0.48459157
205	0x3da5e245	0.08099798
206	0x3e282101	0.1641884
207	0xbec8c5f0	-0.39213514
208	0xbc3a3bc8	-0.011366792
209	0xbe173663	-0.1476684
210	0x3efec9ed	0.49763432
211	0xbca66479	-0.020311581
212	0xbeb5bd1c	-0.35495842
213	0x3f11cc38	0.5695224
214	0xbd8d32e3	-0.068944715
215	0xbe6c4e07	-0.2307664
216	0x3e8de624	0.27714646
217	0x3fa8b731	1.3180906
218	0x3e8828eb	0.26593718
219	0x3e9695a4	0.29411042
220	0x3ecf193d	0.40448943
221	0x3f02c114	0.51075864
222	0x3fbc6427	1.4718064
223	0x3f98fa4f	1.1951388
224	0x3df6a7a0	0.12043691
225	0x3a55bb38	0.0008153203
226	0x3f6a6c99	0.91571957
227	0x3ede1fde	0.43383688
228	0x3db34f2c	0.08755335
229	0x3e48777c	0.1957683
230	0x3e549b22	0.20762303
231	0x3f0f4f4e	0.55980384
232	0x3f9e2847	1.2356042
233	0x3f8cee3d	1.1010205
234	0x3ce64b21	0.028111996
235	0x3f76dd0e	0.9643105
236	0x3e875fdd	0.26440325
237	0x3e5b56b0	0.21419787
238	0x3dcb04a4	0.099129945
239	0x3f8cd176	1.1001422

sequential_1/dense_5/MatMul f4 [7, 10]
0	0x3feaf349	1.8355495
1	0xbf584bba	-0.8449055
2	0xbfae1a3a	-1.3601754
3	0xc02ea817	-2.7290094
4	0x3fb9686e	1.4484994
5	0x3fb42158	1.4072676
6	0x3f0fc676	0.561622
7	0xc02654be	-2.5989223
8	0x3f5c1948	0.85976076
9	0xc02b304d	-2.674823
10	0xbf844308	-1.0332956
11	0x3f34983c	0.7054479
12	0xbeca0293	-0.3945509
13	0x3f668f23	0.9006216
14	0x3e781ac2	0.24228957
15	0xbdf0afbf	-0.11752271
16	0x3f7f99c4	0.99844
17	0xbf032a73	-0.5123665
18	0xbcbbfcaf	-0.022947637
19	0xbfa99f12	-1.325167
20	0x3dce7667	0.10081177
21	0x3f52d500	0.8235626
22	0xbf327256	-0.6970571
23	0xbec65e35	-0.3874375
24	0xbf5976cc	-0.84946895
25	0xbfd946d1	-1.6974736
26	0x3ac97ca3	0.0015372228
27	0x3d092b7b	0.03348873
28	0x3f1f31c4	0.6218531
29	0x3eee26b3	0.465139
30	0xbe439117	-0.19098316
31	0xbf4bf2fe	-0.7966765
32	0x3f1be63f	0.608982
33	0x3e023d5e	0.12718722
34	0x3e325b17	0.1741756
35	0x3db139ed	0.086536266
36	0xbefe47e2	-0.49664217
37	0x3f434ce9	0.7628923
38	0xbeb3f317	-0.351464
39	0x3ec77886	0.3895914
40	0xbe855983	-0.26044855
41	0x3f103b0f	0.56340116
42	0xbf090809	-0.53527886
43	0x3e3535e0	0.17696333
44	0x3dc2c840	0.09510851
45	0xbecdae27	-0.4017193
46	0xbf1f053b	-0.62117356
47	0x3e30a2e3	0.17249636
48	0xbf7689eb	-0.96304196
49	0x3ee174a7	0.4403431
50	0xbe2eab71	-0.17057587
51	0xbed05007	-0.40686056
52	0x3edc5b86	0.43038577
53	0x3eda372f	0.42620227
54	0xbf64da92	-0.8939601
55	0x3ec25f92	0.3796354
56	0xbf816c54	-1.0111184
57	0x3d84261c	0.06452581
58	0x3e190e74	0.1494692
59	0x3e890d4f	0.26767966
60	0xbe3ad721	-0.18246128
61	0x3eab4dfa	0.3345793
62	0xbf510a1a	-0.8165604
63	0x3e9ff519	0.31241682
64	0xbd55f4eb	-0.052235525
65	0xbec2256a	-0.3791917
66	0xbf200e91	-0.62522227
67	0x3ec06832	0.37579495
68	0xbf7402c9	-0.9531675
69	0x3e7737a2	0.24142316
